src/outputs/model_checkpoint.pt (torch, 22789 bytes, 15 tensors)

network.0.weight f4 [64, 15]
000000 e0 52 4d 3e c6 60 9d 3e 6d 6f 14 be 79 1f 76 3e
       0.20051146 0.30737895 -0.1449563 0.24035443
000010 43 1d 3d bd df 09 29 bd 15 ff 81 be 04 08 32 3d
       -0.046170484 -0.04126918 -0.25389925 0.043464676
000020 0d 67 0f 3e fe 92 de bd 49 b5 74 3e ba 8b 9e 3d
       0.14004155 -0.1086788 0.2389728 0.077414945
000030 30 3a 44 3e 6a d0 e1 3c 6f 5f 39 3d b4 2a 07 be
       0.19162822 0.0275652 0.04525703 -0.13199884
000040 98 61 97 3e cb 3b a1 3d 0f cd bd bd 1e 6f 13 bd
       0.29566646 0.07872733 -0.092676274 -0.03599464
000050 f5 94 f1 bd 1a d9 0d be 7b 7e 1d be 05 5c d7 3d
       -0.117959894 -0.13852349 -0.1538028 0.10515598
000060 83 1d 40 be 90 dd a6 bd be 0d d0 bc a4 b6 5c bd
       -0.18761258 -0.081477284 -0.025397178 -0.053885117
000070 e8 af 21 bd 51 9d 3e be cf 38 51 3e a5 18 17 be
       -0.039474398 -0.18614699 0.20431827 -0.14755495
000080 83 ab d2 3e 7a 93 d8 3d 43 60 08 be 16 a4 ce 3d
       0.41146478 0.10575004 -0.13317971 0.10089891
000090 83 f4 0a 3e 75 24 2c 3e ab 47 4f bd fa 0c 22 be
       0.13569836 0.16810782 -0.050605457 -0.15825263
0000a0 82 aa a6 3d 45 7a c8 bd ff 55 88 3d 88 fa 2e 3e
       0.081379905 -0.09788946 0.066570275 0.17087758
0000b0 26 e8 e2 3d ec e6 0c be b9 50 5e 3e be 50 31 bd
       0.11079435 -0.13759965 0.21710481 -0.043289892
0000c0 16 64 6b bc 15 01 2b be d4 ea 42 be f6 d6 4f be
       -0.014367124 -0.16699632 -0.19034892 -0.20296845
0000d0 44 e3 73 be 0f ee 00 3e 99 92 95 3d 27 d5 a0 3d
       -0.23817164 0.12590812 0.07303352 0.078531556
0000e0 51 09 ab 3d 5f 11 1c 3b ca cb 2c 3e 60 73 09 be
       0.08351386 0.0023814065 0.16874614 -0.13422918
0000f0 9f c3 a6 3c 4f 89 29 be bb ad fb 3d 7e d6 a4 bc
       0.020356951 -0.16556285 0.12288996 -0.02012181
000100 ff ad 9f 3d 01 08 95 bd 6c 25 d2 3d a3 08 3e be
       0.07796859 -0.07276917 0.10261044 -0.18557982
000110 e4 4f 60 be 3c 9a 28 bd 55 0f 75 3e 49 4d 9e 3d
       -0.21905476 -0.041162714 0.2393163 0.07729585
000120 cc aa ac 3e 9a 77 37 be 52 02 8d be af e6 75 be
       0.33724058 -0.17916718 -0.27540833 -0.2401378
000130 f6 5f 8e bd d9 70 5f bc 6f e6 80 bd ec bb 47 3e
       -0.06951897 -0.013637745 -0.06293952 0.1950528
000140 3f e5 01 3c c6 5f 83 be 2f df 8a 3d 1e a8 5a be
       0.007928192 -0.25659007 0.0678085 -0.21353194
000150 ba f1 16 3d 25 1a 90 bd e1 3b e4 3d 80 a7 83 be
       0.036851622 -0.07036237 0.111442335 -0.2571373
000160 7c 0a 07 be 1a a1 46 3e 64 ad d7 3d 88 6b 79 bd
       -0.13187593 0.19397393 0.105311185 -0.060893565
000170 60 53 eb 3d a7 c7 26 3e 4b 75 01 be 92 dd 2b be
       0.11490512 0.16287099 -0.126424 -0.16783741
000180 59 32 33 3e 9a f7 e7 bd c2 42 87 be 90 4d 3c be
       0.17499675 -0.11326523 -0.2641812 -0.18388963
000190 fb 1a 3a be 8b f0 36 bb 3b 10 de bd c2 10 2e be
       -0.18174355 -0.002791437 -0.108429395 -0.1699858
0001a0 ac f5 06 3e f6 86 27 bd 22 ab 57 be 22 e9 c2 bc
       0.13179654 -0.040900193 -0.21061376 -0.023792807
0001b0 aa 24 dd bd 19 ea 7a bd 67 6e c9 3e 84 c7 0e 3e
       -0.10798009 -0.06125841 0.39342043 0.13943297
0001c0 a6 7a 28 3d fc 38 16 be 08 e2 58 be e3 b7 9b bd
       0.04113259 -0.14670175 -0.21179974 -0.07603433
0001d0 0e c3 d2 3d 27 42 49 be ae 1b b4 bd aa e6 81 be
       0.1029111 -0.19654141 -0.08794342 -0.25371295
0001e0 36 70 82 bd 3b 50 e1 bc 2b 98 43 3b 5a a1 07 be
       -0.06369059 -0.027504077 0.0029845338 -0.13245144
0001f0 67 d3 74 be a9 c8 0e be a3 1c 4b be 53 8e 4b be
       -0.23908769 -0.13943733 -0.19835143 -0.19878511
000200 6b 95 20 3e 34 be 17 bd 17 7b 30 3e 5d 0b 30 3e
       0.15681998 -0.037046626 0.17234455 0.17191835
000210 0e 43 54 be b1 21 27 3e 64 63 49 bd a4 e5 9e bd
       -0.20728704 0.16321446 -0.049167052 -0.07758644
000220 9e bc 1e be 07 70 87 be df 43 98 3d ef 6e 0a bd
       -0.15501639 -0.26452658 0.074348204 -0.0337972
000230 6f 20 a7 3d 93 ee a2 be 9d 1b 59 3e 0e 65 8d be
       0.08160483 -0.31822643 0.2120194 -0.2761616
000240 88 2a 98 bd 83 e7 5d bc 89 3e 09 3e 9f 47 0f 3e
       -0.07429987 -0.013543966 0.13402762 0.13992165
000250 be 59 9c 3e b0 69 09 be c6 2a ad 3d 0b a5 18 be
       0.30537218 -0.13419223 0.08455424 -0.14906709
000260 d6 12 79 3d ed 0f ed bd 4f c1 71 3e b0 60 1d be
       0.06080898 -0.11575303 0.23608898 -0.15368915
000270 9d cf 0e 3e 53 a7 3c 3d 1b ea 19 bd b2 55 30 be
       0.13946386 0.04605801 -0.037576776 -0.1722019
000280 2c 0f 81 3e 0a 28 1d 3e 8d 74 09 3d ee b2 5f be
       0.25206888 0.15347305 0.033558417 -0.218456
000290 ff a1 07 3e c8 ae be bd e3 18 4a bd 57 f9 37 3e
       0.1324539 -0.09310681 -0.04934014 0.1796621
0002a0 8d 27 64 3c a7 12 44 be 33 a4 f0 bd 53 8f a4 bd
       0.013925445 -0.1914774 -0.117500685 -0.080351494
0002b0 19 2a 1f 3e a4 ef 17 be 76 52 10 be 69 30 bb bd
       0.15543403 -0.1483751 -0.14093956 -0.09140093
0002c0 3a 85 83 be 91 60 a8 3d 75 e3 1c 3e 3f ec 64 be
       -0.2568758 0.082215436 0.15321143 -0.22355746
0002d0 3b 4e 13 3d 8e f9 0e 3d ac 12 3e bc 44 d4 cc bc
       0.03596328 0.034905963 -0.011601131 -0.02500356
0002e0 5c 2f f3 3d 91 63 19 3e bc 32 b0 3d 1d 8f e2 bd
       0.118742675 0.14979388 0.08603427 -0.11062453
0002f0 3d f3 86 bd 44 4d bb 3d 4c 2b a3 3b 83 aa b4 bc
       -0.06589363 0.091455966 0.0049795266 -0.022053963
000300 43 d5 47 3e 96 93 82 3e aa c0 de bd cc 92 c9 bc
       0.19514947 0.25503224 -0.108765915 -0.024606131
000310 9b 62 f1 3c a2 9a 02 3e bb f7 f6 3d 2b 59 8f 3d
       0.029465964 0.127543 0.120589696 0.06999429
000320 04 8c b1 be 08 27 b5 bd 6a 5a 6a 3e a7 2e aa 3d
       -0.34677136 -0.08845335 0.22886053 0.083096795
000330 0c ac 2d 3d ed 21 08 be 24 8f 0a be 83 f5 09 be
       0.042400405 -0.13294192 -0.13531166 -0.13472562
000340 bf 17 90 3d 97 c8 a7 3d be 40 f6 3d 44 05 b8 3c
       0.07035779 0.08192556 0.12024067 0.022463448
000350 7e 7c 6d be 30 ce cc bd 9c d3 af bd 21 41 98 3e
       -0.23192021 -0.10000265 -0.08585283 0.2973719
000360 c4 ac 1d 3c 26 a8 dc bd b6 61 e8 3d 11 ad aa bd
       0.00962371 -0.10774259 0.11346762 -0.08333791
000370 24 d8 e3 bd 8b 26 63 3e 7e 03 dd bd ee a3 11 be
       -0.1112521 0.22182672 -0.10791682 -0.1422269
000380 9c b1 7e be 25 68 1c 3e 3e 88 43 3e 9f 9a 95 3d
       -0.2487244 0.15274103 0.19094941 0.07304882
000390 6c f9 5a be d2 28 8c be 8d 66 6f be 40 e3 21 3e
       -0.2138421 -0.27374893 -0.23378964 0.15809345
0003a0 ff c3 08 3e c7 d0 1f 3e 2f 3e 8f 3d 26 9e 18 3b
       0.13356017 0.15606986 0.069942825 0.0023287623
0003b0 15 8f 12 bd 50 79 8e be f8 94 5a be e0 13 83 be
       -0.035780985 -0.2782693 -0.2134589 -0.256011
0003c0 98 78 33 3e df 01 e7 bd f7 94 a2 3c d0 42 ce bd
       0.17526472 -0.11279654 0.019846423 -0.10071337
0003d0 1c d1 40 3c cc a8 28 be aa e2 1c be 0b 5b a8 3d
       0.011768606 -0.16470641 -0.1532084 0.0822049
0003e0 a9 95 37 be f6 37 50 3e 09 24 24 be 1f db 33 be
       -0.17928185 0.20333847 -0.16029371 -0.17564057
0003f0 13 ed 61 3c 93 09 f8 bd b3 58 1e 3d 3f 3b 85 be
       0.013789433 -0.12111201 0.03865881 -0.26021764

network.0.bias f4 [64]
000000 eb 43 3b be 2a 40 d9 bc ff 83 76 be d6 6d 1d bd
       -0.18287627 -0.026519854 -0.2407379 -0.038434826
000010 cf e7 e2 bd f9 2b 48 3e 6d 56 89 3d 13 65 2c bd
       -0.1107937 0.19548024 0.067059375 -0.04208858
000020 dc d6 c5 3c 9b 9c d9 bd aa a9 bc 3d e9 9e d9 3d
       0.024150304 -0.10625573 0.09212048 0.10626013
000030 ae bf 04 3e b0 21 ab bd 05 ee 34 3e 52 19 30 bd
       0.12963745 -0.08356035 0.17668922 -0.042992897
000040 c6 e6 33 bd b1 4a 2e 3e 30 6d 5b 3e 6d 69 71 3e
       -0.043921255 0.1702068 0.2142837 0.23575373
000050 49 e8 ce 3d b2 06 9a bd f3 4d f8 3d 7c 69 7e 3e
       0.10102899 -0.07520808 0.12124243 0.24844927
000060 45 f6 81 be ea e9 ad bb cd 98 16 be 4a 58 1d 3c
       -0.253832 -0.0053074257 -0.14706726 0.009603569
000070 73 b6 ea 3d 3f 37 f0 bc 3b c3 a5 bc 23 fc ed 3d
       0.11460581 -0.029323218 -0.020234695 0.11620357
000080 5d 2a ef bc ec 8e 41 be b6 aa 64 3e c9 e3 b0 bd
       -0.029195005 -0.18902177 0.22330746 -0.086371966
000090 bf 6c c6 bd c0 2a 24 3b 87 ae cd bb aa 34 53 be
       -0.096887104 0.0025049895 -0.006276909 -0.20625558
0000a0 9c e6 cc 3d 6d 11 03 be 16 0d 6a bd 4c 91 7e 3d
       0.10004923 -0.12799616 -0.057141386 0.062150285
0000b0 4b 1d 8e bd d2 fb ee bd 6e b7 db bd 65 26 8c bd
       -0.06939181 -0.11669125 -0.10728346 -0.06843261
0000c0 7e 5d cb bd 05 c2 73 bd 70 be a9 3d 20 eb 2f be
       -0.099299416 -0.059511203 0.08288276 -0.17179537
0000d0 4a be 45 be a0 16 5c bd 66 58 13 bc 41 1b 2e 3e
       -0.19310871 -0.053732514 -0.008993244 0.17002584
0000e0 fe 38 26 be 7d d5 9c 3c 2b d2 15 3e f1 56 32 3e
       -0.16232678 0.019144768 0.14630954 0.17415978
0000f0 02 c5 92 be 37 6f ed bd eb 37 7d be 0e d8 36 be
       -0.2866593 -0.11593478 -0.24728362 -0.17855856

network.1.weight f4 [64]
000000 b3 95 82 3f 1a b2 86 3f a2 48 81 3f 83 17 84 3f
       1.0201935 1.0523102 1.0100291 1.0319675
000010 27 c3 70 3f 26 85 86 3f 13 85 7f 3f 4a 9e 6d 3f
       0.9404778 1.0509384 0.9981243 0.92819655
000020 1b 80 7e 3f 73 47 86 3f 79 16 72 3f b8 48 8a 3f
       0.99414223 1.0490555 0.9456554 1.0803442
000030 96 d2 8e 3f e7 59 8a 3f 27 ed 75 3f 3e 28 60 3f
       1.1158016 1.0808686 0.9606499 0.87561405
000040 fb 80 74 3f 2f b0 7d 3f 49 0a 83 3f 89 92 83 3f
       0.9550931 0.9909696 1.0237514 1.0279094
000050 d8 7f 82 3f 87 0c 88 3f 1e 2d 74 3f d7 d7 6b 3f
       1.0195265 1.0628823 0.95381343 0.9212622
000060 00 5a 87 3f 34 6e 66 3f bc 19 86 3f 28 ff 6e 3f
       1.0574341 0.90011907 1.0476604 0.9335809
000070 b7 99 78 3f cc 2d 82 3f 54 81 83 3f 68 6e 6a 3f
       0.9710955 1.0170226 1.0273843 0.91574717
000080 5c 93 74 3f 25 b2 83 3f cf 3b 8a 3f 7a 58 7f 3f
       0.9553735 1.028874 1.0799502 0.9974438
000090 f8 3a 74 3f a0 0c 7a 3f 7e f5 79 3f c3 e5 7a 3f
       0.9540248 0.97675514 0.97640216 0.9800684
0000a0 e4 cc 71 3f d2 17 83 3f eb 8e 83 3f 0c 1d 7e 3f
       0.94453263 1.0241644 1.027799 0.9926307
0000b0 a4 4f 85 3f e5 08 6c 3f 04 09 7b 3f ae d0 7f 3f
       1.0414929 0.9220107 0.9806063 0.99927795
0000c0 5e 2d 96 3f 0c 05 7e 3f 15 fd 77 3f 94 15 67 3f
       1.1732595 0.9922645 0.9687055 0.902673
0000d0 2c 35 89 3f 44 87 8f 3f b2 4f 87 3f 98 a8 7c 3f
       1.0719352 1.1213155 1.0571196 0.98694754
0000e0 22 79 77 3f 87 2a 86 3f 4b ad 88 3f 8a f6 5e 3f
       0.9666921 1.0481728 1.0677885 0.8709494
0000f0 93 a0 86 3f e8 f9 86 3f 45 d4 75 3f 5c e7 7f 3f
       1.0517753 1.0545015 0.9602702 0.999624

network.1.bias f4 [64]
000000 2d ef e4 3a 24 39 16 3d 2e 92 77 3d 74 78 1a bb
       0.00174663 0.036675587 0.060442142 -0.002357033
000010 e7 03 5a bc 01 52 18 3d 48 c4 04 bc 56 92 33 bc
       -0.013306594 0.03718758 -0.008103438 -0.010960182
000020 2e 66 87 bd cc 8e a0 bd e4 1f a5 3b 89 e3 9c 3d
       -0.06611286 -0.07839736 0.005039202 0.076605864
000030 8f b7 0e 3d 3a ac 23 3c bf e8 0c 3d 98 8b 18 bc
       0.034843024 0.0099897925 0.03440165 -0.0093106255
000040 cc dc 09 3d 0a 86 c4 bb a1 27 ed bc 38 c0 eb 3c
       0.033657834 -0.005997424 -0.02894956 0.02877818
000050 ed 89 50 bc 95 00 c6 bc d8 d1 17 3b 88 b3 7d 3b
       -0.012728197 -0.0241702 0.0023165848 0.0038711745
000060 09 dd ed 3c 88 31 7d bd 24 98 97 3c a7 e7 99 bc
       0.029036062 -0.061814815 0.018505163 -0.018787218
000070 fe bc 89 3c 2d a0 53 bd 88 08 27 3c 41 07 c6 bd
       0.016813751 -0.051666427 0.010194905 -0.09669352
000080 f0 3a 01 bd 5e 44 02 bd 67 ac d3 3d 82 0e c3 3c
       -0.031550348 -0.03180348 0.103356175 0.023810629
000090 02 ec f5 3d b7 73 21 3c 74 89 70 bc e0 48 22 bd
       0.120079055 0.009854249 -0.014681209 -0.03962028
0000a0 7f ae 19 bd e7 31 b9 bc 23 72 ad bc 51 75 5a bd
       -0.037519928 -0.022606803 -0.021172589 -0.053334538
0000b0 df f8 13 3d a7 28 e7 bc 9b e9 38 bd 98 e3 67 3d
       0.036126014 -0.028217627 -0.04514466 0.056613535
0000c0 d3 53 99 3d ef 6d 65 3d 5b f5 78 bd 80 ed b2 bd
       0.07486691 0.056013044 -0.060780864 -0.08736706
0000d0 86 3f f0 3c d1 a4 8b 3c ab 0b b9 bc 1f a7 98 bb
       0.029327165 0.017046364 -0.022588572 -0.0046585943
0000e0 5b ff a2 3c e8 df ba 3c 08 a2 1b 3d 34 b9 fe bd
       0.019897154 0.022811845 0.037996322 -0.124376684
0000f0 2f eb eb bc c5 d6 88 bc be ac 8b 3b 28 0d 7e 3c
       -0.028798668 -0.016703973 0.004262536 0.015506066

network.1.running_mean f4 [64]
000000 61 61 37 be af f5 da bc 2d f6 71 be 64 6d 1a bd
       -0.17908241 -0.02672848 -0.23629065 -0.03770198
000010 86 73 e7 bd 24 e4 47 3e 45 8e 8d 3d e5 66 38 bd
       -0.11301331 0.19520622 0.069119014 -0.045020003
000020 a3 e7 a4 3c db 6f dd bd 23 57 bf 3d ca 24 d8 3d
       0.020129984 -0.1081235 0.09342792 0.10553892
000030 4a f7 03 3e 02 2c b0 bd 15 55 35 3e 21 b9 2a bd
       0.12887302 -0.08602144 0.17708237 -0.04168046
000040 77 04 31 bd 2a e4 2e 3e 70 17 56 3e a0 3d 6b 3e
       -0.04321715 0.17079225 0.20907378 0.22972727
000050 aa 01 c7 3d ff fe 9a bd 4c f6 fb 3d 0e dd 82 3e
       0.09717114 -0.07568168 0.12302837 0.25559276
000060 c4 5a 83 be 07 4d 14 bc cc 82 16 be 5a 2e 57 3c
       -0.25655186 -0.009051568 -0.14698333 0.01313361
000070 6c 84 e0 3d 8b 85 f7 bc e8 b3 80 bc df ff ea 3d
       0.109627575 -0.030215045 -0.015710786 0.11474585
000080 af a8 c6 bc 88 ed 42 be 4b 1f 64 3e 6c 7a b4 bd
       -0.024250356 -0.19035923 0.22277562 -0.088124126
000090 e3 ea b3 bd 69 09 bc ba 11 ec 08 bc cc 8e 5a be
       -0.087850355 -0.0014346066 -0.008357064 -0.21343535
0000a0 88 52 d1 3d 74 15 01 be bc 48 88 bd 0a c3 83 3d
       0.1022082 -0.1260584 -0.06654498 0.06433685
0000b0 fe 36 94 bd eb 1a fe bd 9b b9 d6 bd db 02 96 bd
       -0.072370514 -0.12407478 -0.1048462 -0.073247634
0000c0 80 be d7 bd d3 61 82 bd 9e 78 b1 3d 0f 02 35 be
       -0.10534382 -0.06366315 0.08665584 -0.17676567
0000d0 24 e5 3f be b9 af 48 bd a1 08 dd bb ff a9 2b 3e
       -0.18739754 -0.048995707 -0.0067454134 0.16764067
0000e0 5f ec 2b be b5 75 a5 3c e0 64 16 3e 8e 12 34 3e
       -0.16789387 0.020197729 0.14686918 0.17585203
0000f0 86 b4 92 be cf c2 e6 bd 6a e5 7f be 74 d6 36 be
       -0.28653353 -0.112676255 -0.24989858 -0.17855245

network.1.running_var f4 [64]
000000 e5 e7 87 3e e5 de 65 3e cd 54 c9 3e 81 e9 cb 3e
       0.2654411 0.22448309 0.3932251 0.39826587
000010 74 75 d9 3e 4b 38 86 3e c9 9e a6 3e 4b 9b f1 3e
       0.42472422 0.26214823 0.32543018 0.47188792
000020 14 b5 b2 3e 4b 88 b2 3e a0 a9 80 3e de ed 62 3e
       0.34903777 0.34869608 0.25129414 0.22161052
000030 e9 af f3 3d c9 ea 6f 3e e6 dc a7 3e c6 01 ae 3e
       0.118987866 0.23429407 0.3278572 0.33985728
000040 12 79 a7 3e 54 91 97 3e 49 eb eb 3e 0a 03 bc 3e
       0.32709557 0.29603064 0.46077946 0.3672107
000050 35 db 69 3e c3 79 a1 3e 9b a6 ed 3e 55 74 49 3f
       0.22837527 0.3153821 0.46416172 0.78693134
000060 16 7c fc 3e 84 f5 f7 3e 97 e7 27 3e c0 1b 92 3e
       0.4931342 0.484295 0.16396938 0.28536797
000070 25 42 ee 3e 94 84 ac 3e 3b 75 64 3e 29 e8 bd 3e
       0.4653484 0.336949 0.22310345 0.37091187
000080 d9 c8 36 3e 2d b2 49 3e e2 6a 95 3e ee 7b 8e 3e
       0.17850055 0.19696875 0.29183108 0.27828926
000090 5f 5d e7 3e 3d 3b 95 3e 94 a2 a9 3e c0 1b a8 3e
       0.45188424 0.29146758 0.3313185 0.32833672
0000a0 17 44 cf 3e b4 0f b8 3e 9e 20 f5 3e 6d ce ba 3e
       0.40481636 0.3594948 0.47876447 0.36485615
0000b0 2e 87 47 3e 74 fc b3 3e c4 73 b7 3e 9b 31 a8 3e
       0.1948516 0.35153544 0.3583051 0.32850346
0000c0 b0 b2 4e 3e 0c 91 32 3f 25 7f b4 3e fc 44 00 3f
       0.20185351 0.69752574 0.35253254 0.5010526
0000d0 f0 bb aa 3e 18 4a 01 3e fc 93 84 3e 08 f6 5e 3e
       0.3334651 0.12625921 0.25894153 0.21773541
0000e0 d2 70 08 3f 01 1c db 3e 71 be a9 3e 19 ff 79 3e
       0.5329715 0.42794803 0.33153108 0.24413718
0000f0 9b 26 04 3f fc 81 80 3e f4 33 f4 3e 53 8c 18 3f
       0.5162141 0.2509917 0.47695887 0.5958912

network.4.weight f4 [32, 64]
000000 f4 28 e6 3d 32 14 8e 3c 95 65 18 3c b4 71 cb bd
       0.1123828 0.017343614 0.009301563 -0.099337965
000010 e8 fd fe 3c 6f 81 66 bd 2f 44 b1 3d bd ad 6a bd
       0.031126931 -0.05627578 0.08655583 -0.057294596
000020 d9 4c 0b 3c 02 19 1f be dc a5 9c 3c 32 5d d7 3d
       0.008502209 -0.15536883 0.019122057 0.105158225
000030 7d 3f 80 3d b7 ef 9f bd 05 a8 95 bd d0 71 81 bc
       0.062621094 -0.07809394 -0.07307438 -0.01580134
000040 8f 60 16 bd e0 ae d2 3d 18 a3 43 bc 72 cf 9b 3d
       -0.03671318 0.10287261 -0.01194074 0.076079264
000050 9f af 92 bd 56 0d 25 bd f0 46 93 3c 7a 05 9e bc
       -0.07162403 -0.04029592 0.017978162 -0.01928972
000060 8d 8e 52 bd 61 91 2c bd a4 e8 13 3e 6d 9d ce bc
       -0.05140548 -0.04213083 0.14444214 -0.02522155
000070 b5 65 e1 bd 76 1c 12 bd 8a ad b5 3d 39 cb 68 bc
       -0.11005727 -0.035671674 0.088709906 -0.014208608
000080 4c f7 92 bd 5d 42 85 3c 5e 0a af bd 58 88 0a be
       -0.071760744 0.016266996 -0.08546899 -0.13528574
000090 5d 68 88 bd 4e 15 ce 3d 60 de d6 3d 98 e3 07 3e
       -0.06660531 0.10062657 0.104916334 0.13270414
0000a0 89 74 35 be b6 fd b4 3d fc ce 15 bd c9 7d 2d bd
       -0.17720236 0.08837454 -0.03657435 -0.042356286
0000b0 8c 9b 1a 3b 66 7a 44 3d 59 d5 84 3d bd c2 41 bc
       0.0023591248 0.04796829 0.06486005 -0.011826214
0000c0 6d 86 f3 bd cb d0 99 3d d4 02 fc bc 78 6f b1 3d
       -0.11890874 0.07510527 -0.030763067 0.08663839
0000d0 33 14 8f 3c b4 93 64 3c a7 e8 c6 bd 51 b8 43 bd
       0.017465686 0.013951231 -0.09712344 -0.0477832
0000e0 4b 06 82 bd 4f 3f 69 bc b5 a0 3e be c3 7f f5 bc
       -0.063488565 -0.014236285 -0.18615992 -0.029968148
0000f0 a0 8a 10 3d 22 27 17 3e 2e 7d b6 3d 4c 6a 41 3d
       0.035288453 0.14761022 0.08910595 0.047220513
000100 9d 07 cf bd 5a 7f 4b be 63 66 36 bd cb bb 0e bd
       -0.10108874 -0.198728 -0.044531237 -0.034847062
000110 35 92 6d bd fb 94 a2 3d ba 2d 0b 3e 93 a2 fe bb
       -0.058000762 0.07938572 0.13591662 -0.007770845
000120 af 87 d4 bd 3d dc dd 3d 87 38 ca 3d 90 9f a3 3c
       -0.10377442 0.10833023 0.09874063 0.019973546
000130 9c 23 c4 bc a1 81 48 3d 38 ac ce bd 4e b9 8c 38
       -0.023942761 0.04895175 -0.10091442 6.710236e-05
000140 a1 38 e1 3c 41 a0 9b bd ac 9b b7 3c 3b 86 a2 3d
       0.027492823 -0.075989254 0.022413097 0.07935759
000150 93 4d 11 3d e0 8b 8d 3d fb 36 95 3d 48 79 e7 bd
       0.03547437 0.06911445 0.07285877 -0.113024294
000160 05 89 f2 bd 94 98 c3 bd 8c 13 ad bc 84 e6 51 bd
       -0.11842541 -0.09550586 -0.021127485 -0.051245227
000170 69 65 2f bd f9 b8 0d 3e 99 70 7b 3d 6f 3e 29 bd
       -0.04282132 0.13840093 0.06138668 -0.041319307
000180 c7 8b 02 be 81 48 05 be 8c 04 42 3d 67 a6 03 be
       -0.12748633 -0.1301594 0.047367617 -0.12856446
000190 17 07 78 bd 37 21 ad bd 3e 76 a9 3d 51 22 11 3e
       -0.060553636 -0.08453601 0.08274506 0.14173247
0001a0 43 9c b1 3c 03 97 f6 3d ba 87 29 be ce 0b 0b 3d
       0.021680957 0.12040522 -0.16555682 0.033946805
0001b0 29 ba 07 be 95 eb 4e bd 37 4e 55 3d bc 58 01 be
       -0.13254608 -0.050517637 0.052076545 -0.12631506
0001c0 14 1e 76 3c 6d 3a 80 3d cc 06 3c bd a9 3c 00 3d
       0.01502182 0.06261144 -0.04590492 0.03130785
0001d0 1c a7 69 3d 2a 49 69 3d 0a 13 11 be 77 47 bc bd
       0.057044134 0.05695454 -0.14167419 -0.09193318
0001e0 26 bb c2 3c 12 67 51 bd ff eb 4b be 19 2c 19 bc
       0.02377088 -0.051123686 -0.19914244 -0.009348893
0001f0 9d fb bc 3d a1 e9 31 3d a7 fb d8 bc a6 b5 f3 3d
       0.09227679 0.043435697 -0.026487185 0.11899881
000200 73 75 c9 3d 02 aa 76 3d 28 d0 a3 bd 71 88 20 3d
       0.09836855 0.060220726 -0.07998687 0.03919262
000210 b5 3e ea 3d 65 1a bc 3d 13 cd 00 be 35 0c 94 3d
       0.11437742 0.09184722 -0.1257823 0.07228891
000220 dd c8 7c 3d 7f e0 8f 3d 5d 80 c7 3c a4 ba dd 3d
       0.061714996 0.07025241 0.0243532 0.108266145
000230 ab ce f3 bd e2 23 6f 3d 9f 5e cf bc c5 9e 20 3c
       -0.11904653 0.05838383 -0.025313674 0.009803479
000240 32 d3 a4 bd f5 b5 21 3d 20 09 19 3c c1 c2 24 bd
       -0.08048095 0.03948017 0.0093405545 -0.040224794
000250 b8 b1 2e bd f9 4a f1 bb df 26 ca 3d cd d3 4d bc
       -0.042649955 -0.0073636738 0.09870695 -0.012562704
000260 a3 4a 55 3d 52 cb 47 3d 3e 8c 17 3e 9b 4d 7a bd
       0.052073132 0.048777886 0.14799592 -0.061109167
000270 10 9a 80 3c 08 da c3 3a 35 2a eb bd fb af 89 bd
       0.015698463 0.0014942298 -0.1148266 -0.06723019
000280 00 a9 b1 bc fe 67 33 bd 63 43 04 be 71 6f ea bd
       -0.02168703 -0.043800347 -0.12916331 -0.11447037
000290 cf 6a 3b bd fa b9 c9 3d 44 7f 49 bd 2b cd ff 3d
       -0.045756157 0.09849925 -0.049193636 0.124903046
0002a0 d0 6c ae 3d f3 25 9d bd fe a9 72 bd cd 9b da bd
       0.08516848 -0.07673254 -0.05924415 -0.10674248
0002b0 ae 0a a6 bc 99 ad 15 bd 57 b5 05 bd a3 1d 67 bc
       -0.020268764 -0.03654251 -0.032643642 -0.014106187
0002c0 75 ff 03 be d1 2e a0 bc cd f6 0e bd ef 5f c6 3d
       -0.12890418 -0.019553574 -0.034903336 0.09686267
0002d0 55 49 fb bd 1a 6f 2d be b5 19 b1 3c ae a9 46 3d
       -0.12269846 -0.16936913 0.021618703 0.048501663
0002e0 83 21 8c 3d 51 a0 04 3e ee 28 7c 3d f3 3b bc bd
       0.06842329 0.12951781 0.06156247 -0.09191122
0002f0 4c 0b 0e 3e a1 d6 d4 3d 17 ea 18 bd b5 69 e2 3d
       0.13871497 0.103925 -0.03733262 0.11055318
000300 66 52 fb 3d cd 55 af 3c d9 e6 a2 3c 8c ad 0b bd
       0.12271576 0.021403218 0.019885467 -0.034101054
000310 e9 3d 4e bd 36 60 c7 bb 15 0b 10 3d d5 e5 07 be
       -0.05035201 -0.0060844673 0.03516682 -0.13271268
000320 60 e9 ae 3d 5a 34 7c be fd ef db 3d e4 fa 1c 3e
       0.085406065 -0.24629346 0.107391335 0.15330082
000330 9f be b4 3c bf 59 f8 bd 1c 87 22 bd 21 45 f4 3b
       0.022063551 -0.12126493 -0.03967963 0.00745453
000340 9b ce 12 3d 78 ca a4 3d ee 6c 95 3d 3e bf ed bc
       0.035841566 0.0804643 0.07296167 -0.029021855
000350 e3 2b ee bb 06 5c 95 3c d0 38 2f 3b e6 32 2c 3c
       -0.0072684153 0.018232357 0.0026736744 0.010510182
000360 4f d9 ec bd 6e a0 d7 3c 60 f4 37 3d e0 34 b2 bd
       -0.11564886 0.026321616 0.04491079 -0.08701491
000370 bb 15 56 3b c6 64 47 3d 4a 4e 0a be bc 69 0e bd
       0.003266676 0.04868009 -0.13506427 -0.034768805
000380 fe c1 6f bd e2 4b de 3d b8 bb 0a bd e8 b1 99 bd
       -0.058534615 0.10854317 -0.03387043 -0.07504636
000390 c7 af f2 bc 50 88 8a 3c 1e 51 9c bd 08 cd 59 3d
       -0.029624833 0.016910702 -0.076326594 0.05317405
0003a0 0d 71 ec bc 90 08 f9 3d 7e db bd 3d cb 1d bf bd
       -0.0288625 0.12159836 0.092703804 -0.093318544
0003b0 2f 3b 03 bc 95 a1 85 3d 2f 84 bf bc 2f 3d 90 bd
       -0.008009716 0.0652496 -0.02337846 -0.0704292
0003c0 2d 39 cb 3d 40 fc 92 3d 4a 46 43 bd 9f 9e 8f 3d
       0.09923015 0.07177019 -0.047674455 0.070126764
0003d0 0b 6e 77 3c e8 64 8f bd a0 bb 26 3c 9b 0b 07 3d
       0.01510192 -0.07001668 0.010176569 0.032970052
0003e0 dc 2a a3 bd ea 36 f6 3b 50 fd c6 bd 19 38 b7 3d
       -0.07967159 0.0075138705 -0.09716284 0.08946247
0003f0 d8 fa bc 3d ee 95 f8 3d c8 7e 0f bc af 2f 9b bc
       0.09227532 0.12137972 -0.008758254 -0.018943636

network.4.bias f4 [32]
000000 37 c7 02 bc d2 12 39 3d 9f 73 6f bc 78 eb 07 be
       -0.007982067 0.045183964 -0.014614969 -0.13273418
000010 8e 83 c2 3c bd ec a5 3d d8 1a 9d bc 91 53 21 bd
       0.02374437 0.08101795 -0.01917784 -0.039386336
000020 d8 a0 52 bd 4e 5c 01 3c 4e 35 98 3c 12 12 2b be
       -0.051422924 0.007895542 0.018580105 -0.16706112
000030 96 b7 35 bd 9d 72 45 bc 4d e4 bb 3d 76 a5 0a 3e
       -0.044364534 -0.012051252 0.09174404 0.13539681
000040 55 6e 16 3c 38 8d 5b 3d 16 b7 a9 3d 6c 26 3a bd
       0.009181579 0.053601474 0.08286874 -0.0454468
000050 75 3f 30 bd f9 f4 5e 3d ce 79 c8 3d 9e 0c d5 3c
       -0.043029267 0.054432843 0.097888574 0.026006993
000060 70 03 c1 bd e9 6a c0 3d f1 4d 04 be a8 a4 61 3d
       -0.09424484 0.093953915 -0.12920357 0.05508867
000070 46 50 50 3d 05 01 57 3d f2 53 04 be d1 dd 96 bd
       0.050857805 0.052491207 -0.12922648 -0.07366527

network.5.weight f4 [32]
000000 37 4e b0 3f c6 a6 b0 3f f4 f8 ae 3f 9c c2 b0 3f
       1.3773869 1.3800895 1.3669724 1.380939
000010 cc 37 b1 3f 0c e7 b3 3f f8 1f ae 3f c1 80 b4 3f
       1.3845153 1.4054885 1.3603506 1.4101793
000020 91 1e ab 3f 85 2c ab 3f 1a 60 a7 3f dd 2a aa 3f
       1.3368703 1.3372961 1.3076203 1.3294331
000030 7d d9 b4 3f f0 40 ae 3f 00 4f b1 3f 13 3d ab 3f
       1.4128872 1.3613567 1.3852234 1.3378013
000040 a3 90 b0 3f d8 85 ae 3f 6e 05 b1 3f 79 6a b5 3f
       1.379414 1.3634596 1.3829782 1.4173118
000050 1f 33 af 3f c3 75 ab 3f e0 61 b0 3f a0 1a ae 3f
       1.3687476 1.3395313 1.3779869 1.3601875
000060 6c 48 b1 3f a9 89 b1 3f 68 dd a4 3f 87 55 b2 3f
       1.3850226 1.3870136 1.2880068 1.3932351
000070 61 7e b0 3f b6 58 b1 3f 32 2e ae 3f d4 90 af 3f
       1.3788568 1.3855197 1.3607848 1.3716073

network.5.bias f4 [32]
000000 0f 65 cc 3e 50 f9 c6 3e ff 46 c8 3e 4a fb cb 3e
       0.39920852 0.38862085 0.39116666 0.39840156
000010 5c 2a d1 3e e5 80 cf 3e 48 e5 b4 3e cb b9 d3 3e
       0.4085263 0.40528026 0.35331178 0.41352686
000020 36 96 b6 3e 10 ea aa 3e 69 d3 9b 3e 8b c8 a9 3e
       0.35661477 0.333817 0.3043473 0.33160815
000030 92 83 c1 3e e7 9d c2 3e 53 99 cb 3e b1 9e a9 3e
       0.37795693 0.38011095 0.39765415 0.33128884
000040 28 04 c2 3e 9a 02 c9 3e 42 36 c7 3e 09 20 cc 3e
       0.37893796 0.39259797 0.38908583 0.3986819
000050 0c 41 c0 3e 38 22 b6 3e 75 8f cd 3e ec 08 bc 3e
       0.37549627 0.35572982 0.40148512 0.36725557
000060 5e 6c cb 3e b0 3c ce 3e 4a bf 99 3e 84 8d c9 3e
       0.39731115 0.40280676 0.30028754 0.3936578
000070 c0 fd c7 3e 86 5b c5 3e 16 2f c2 3e 38 23 bc 3e
       0.39060783 0.3854639 0.3792655 0.3674562

network.5.running_mean f4 [32]
000000 9c 28 e2 bd 6a 2d 6a be f9 91 c3 3c bc 16 6e bd
       -0.11042902 -0.22868887 0.023873316 -0.05812715
000010 d0 99 0d be 0c 82 5f bf ad 4a 97 be 26 95 07 bf
       -0.13828206 -0.8730781 -0.2954916 -0.5296196
000020 69 2c a1 bd 6f d1 f6 be bc 61 64 3d 9e 05 76 be
       -0.07869799 -0.4820666 0.05575727 -0.2402558
000030 ac 8a 89 bd 57 54 dd be 16 81 dd be c9 2d 12 bf
       -0.06715903 -0.4322841 -0.43262547 -0.5710111
000040 54 7f 5a be 3c 10 2e 3e ed 19 8c be 06 43 44 bf
       -0.21337634 0.1699838 -0.2736353 -0.7666477
000050 fe 68 e7 be 56 74 34 bf c1 2d 8b be 5b 59 75 be
       -0.4519729 -0.70490015 -0.27183345 -0.23959868
000060 65 bd a9 be d9 9f 07 bf e4 7e 5c bc df c7 8d be
       -0.3315231 -0.52978283 -0.013457987 -0.27691552
000070 a3 d0 d6 bd 7c e5 cf be 98 cd 1b be 39 f7 d0 be
       -0.10489013 -0.4060477 -0.15215147 -0.40813616

network.5.running_var f4 [32]
000000 ae 2e d0 3e f0 62 56 3f 94 0e ce 3e 6c 82 93 3e
       0.40660614 0.83744717 0.40245497 0.28810441
000010 3a f3 00 3f 7a 21 1f 3f 4e ac f0 3e 95 4a c7 3e
       0.50371134 0.62160456 0.47006458 0.3892409
000020 9b 55 a8 3e 04 19 c8 3e a9 be c2 3e ea 4a d3 3e
       0.32877812 0.39081585 0.38036087 0.41268092
000030 ab c6 00 3f 9b 64 f3 3e 88 00 b1 3e 70 44 aa 3e
       0.50303143 0.47537693 0.34570718 0.3325534
000040 34 11 a2 3e 13 47 2b 3f ab 03 a3 3e 3d da aa 3e
       0.3165375 0.66905326 0.31838736 0.33369628
000050 17 90 ff 3e 91 d3 05 3f 42 b6 e9 3e 23 b5 1d 3f
       0.4991462 0.5227595 0.45646864 0.6160452
000060 83 ed b5 3e 4e 84 f6 3e f3 5a db 3e e4 eb e7 3e
       0.3553277 0.48147815 0.42842826 0.45297158
000070 4a 5c d7 3e 1b 60 ca 3e 18 b3 ea 3e 61 2a 08 3f
       0.42062598 0.39526448 0.45839763 0.53189665

network.8.weight f4 [16, 32]
000000 f2 fa d5 3e 89 c5 f5 3e f2 4b 92 3e 75 bf fd 3e
       0.4179302 0.4800227 0.28573567 0.49560133
000010 be b4 9c 3e 3d e1 7f 3e c5 ff 8b 3e e8 33 bd 3e
       0.30606645 0.24988265 0.27343574 0.36953664
000020 90 fb 99 3e 9a 2e e2 3e 36 b8 79 3e b0 63 95 3e
       0.3007474 0.4417618 0.24386677 0.29177618
000030 99 19 44 3e bd 37 f4 3e f1 55 a0 3e b7 4c 6c 3e
       0.1915039 0.47698775 0.31315568 0.2307614
000040 82 37 ab 3e 2c f6 ae 3e 38 c0 ca 3e 90 0c b0 3e
       0.33440787 0.3417219 0.39599776 0.34384584
000050 3f ca e8 3e e2 71 92 3e 6a 3c 93 3e 2f 40 98 3e
       0.45466802 0.2860251 0.2875703 0.29736468
000060 3b fc c1 3e 64 31 f6 3e 80 55 ad 3e 44 fe f7 3e
       0.3788775 0.48084557 0.33854294 0.48436177
000070 5b 68 f7 3e 5f 42 80 3e 4f 00 a6 3e 9f 64 88 3e
       0.48321804 0.25050637 0.3242211 0.26639268
000080 5d d3 16 3d 1a b3 b8 bd e4 b6 e2 3b ef 9d a8 bc
       0.036822665 -0.09018536 0.006918775 -0.020583121
000090 2d c7 1b be 95 3b 29 be 8c 77 4a be 6c bb 11 be
       -0.15212698 -0.16526635 -0.19772166 -0.14231652
0000a0 40 57 4f bb 04 95 e8 bc 3c 8e b3 3d 48 c5 32 be
       -0.0031637698 -0.028391369 0.087673634 -0.1745807
0000b0 01 74 25 bd 62 d2 44 be 3f e6 51 bd 3e 6e 59 3c
       -0.040393833 -0.1922088 -0.05124497 0.013270913
0000c0 7f 07 47 be 53 c5 e7 3d 32 a0 c2 bd 7a 9f c2 3d
       -0.19436453 0.113169335 -0.09503211 0.09503074
0000d0 58 f8 7e bd e2 38 82 3d 6e cf d7 3d 3d 06 d0 bd
       -0.062248558 0.06358506 0.10537611 -0.1015744
0000e0 69 10 a5 bd 7b 0b 11 3d 13 09 3d be 0a 93 0e 3d
       -0.080597706 0.03541134 -0.18460493 0.034808196
0000f0 fd bf 24 be e9 bf fb 3d eb 75 18 be f0 9c ea bd
       -0.16088863 0.12292463 -0.14888732 -0.11455715
000100 79 93 e1 3e de d0 79 3e 2d 26 e8 3e a0 15 da 3e
       0.44057825 0.24396083 0.45341626 0.42594624
000110 d6 8e f4 3e a0 41 2c 3e c7 45 a1 3e 75 56 8b 3e
       0.47765225 0.16821909 0.31498548 0.272144
000120 16 03 b1 3e da 9c 48 3e b4 89 c0 3e 65 c4 99 3e
       0.34572667 0.19591084 0.3760506 0.3003265
000130 2d ed 7e 3e 7c 4f 1d 3e 05 c3 d1 3e c6 66 8e 3e
       0.24895163 0.15362352 0.409691 0.27812785
000140 08 73 e0 3e 8b dd ad 3e 6d 02 bf 3e e1 95 9d 3e
       0.43837762 0.33958086 0.37306538 0.3077841
000150 1e 2b 96 3e b3 04 85 3e 83 b6 2a 3e c5 5a d3 3e
       0.2932977 0.25980148 0.16671185 0.4128019
000160 b3 79 59 3e 4e 77 d3 3e a1 22 83 3e f5 d8 d9 3e
       0.21237831 0.4130196 0.25612357 0.42548338
000170 0f d3 ed 3e 68 5a 55 3e e2 02 e8 3e f2 28 a4 3e
       0.46450087 0.20835268 0.453147 0.3206249
000180 be 63 47 be 67 d9 97 3b bb 1e e4 3c c6 8f a7 3d
       -0.19471642 0.0046340707 0.027846685 0.081817195
000190 9d 04 67 be 0c 14 a9 3d c4 66 9c 3d 26 44 be 3d
       -0.22560354 0.08255777 0.076367885 0.09290342
0001a0 86 1c 16 3d ed c8 09 be 28 60 98 3d c7 2c c6 3d
       0.036648296 -0.13455553 0.07440215 0.09676509
0001b0 f8 c3 f7 bd f3 c8 a6 bd b2 a9 80 3d 81 5e 9b 3d
       -0.12097925 -0.08143797 0.06282367 0.075863846
0001c0 48 53 34 3d cb 53 94 3d 13 df 20 be f3 51 b0 bd
       0.044024736 0.07242545 -0.15710096 -0.086093806
0001d0 78 c3 03 be 6d c1 d9 3c f8 ff 83 bc 2a 75 47 be
       -0.12867534 0.02658149 -0.016113266 -0.19478288
0001e0 24 50 b1 bd 15 f9 49 be 06 fe 5a be 3f cc a7 3d
       -0.08657864 -0.19723924 -0.21385965 0.08193254
0001f0 e8 fb 18 be 7f 24 97 3c b3 ea cf bd 35 a8 bb bd
       -0.14939845 0.01845002 -0.10152187 -0.09162942
000200 fe 7b a1 3e 28 5c eb 3e fc 45 97 3e 7f 32 e9 3e
       0.3153991 0.45968747 0.2954558 0.45546338
000210 14 31 d9 3e d7 3b ea 3e 7c 5f 28 3e c5 41 86 3e
       0.42420256 0.4574878 0.16442674 0.26222053
000220 9a ed 34 3e d9 a0 9b 3e e0 29 92 3e 50 5d b4 3e
       0.17668763 0.30396155 0.28547573 0.35227442
000230 ba 62 fb 3e 09 3a c8 3e 85 ea 52 3e 06 59 82 3e
       0.4909876 0.39106777 0.20597275 0.25458544
000240 1a 73 e6 3e 5f e7 a8 3e ad 5d c1 3e 58 c8 82 3e
       0.4500969 0.32989022 0.3776678 0.25543475
000250 d5 b0 98 3e 22 ec c1 3e 7b 2f 5a 3e e8 e2 db 3e
       0.29822412 0.37875468 0.21307175 0.42946553
000260 83 d8 d1 3e 0e db 6d 3e 36 e9 82 3e 48 6c 96 3e
       0.40985498 0.23228094 0.2556855 0.29379487
000270 ab f8 b7 3e 93 73 83 3e 3c 5a f7 3e 7d 2c 30 3e
       0.35931906 0.25674114 0.4831103 0.17204471
000280 27 f2 65 3e 37 1f 62 3e a0 eb b5 3e d0 fa ad 3e
       0.22455655 0.2208222 0.3553133 0.33980417
000290 8e 9c 8c 3e 55 db f2 3e cb d5 32 3e b0 30 c9 3e
       0.27463192 0.47432962 0.17464368 0.39294958
0002a0 2e 89 59 3e 09 95 94 3e 76 03 1c 3e 62 57 47 3e
       0.21243736 0.29019955 0.15235695 0.19466928
0002b0 eb 8b 48 3e e2 cc c4 3e 7c e5 82 3e 20 da d8 3e
       0.19584624 0.38437563 0.25565708 0.42353916
0002c0 90 71 6e 3e 8a 40 8f 3e 11 bc af 3e e3 64 f5 3e
       0.23285508 0.27978927 0.3432317 0.47928533
0002d0 21 24 8c 3e 93 e8 d5 3e af 22 b8 3e 67 08 d6 3e
       0.27371314 0.41779003 0.3596396 0.41803285
0002e0 1a 06 dd 3e b0 cf c3 3e 99 9c 88 3e c1 85 8c 3e
       0.43168718 0.3824439 0.26681975 0.27445796
0002f0 e7 25 c6 3e 3e 1b d1 3e c8 3d 9c 3e ba 95 d1 3e
       0.38700792 0.40841097 0.30515885 0.40934545
000300 e3 59 6c 3e 2e bd df 3e 4b 6d a1 3e a7 43 59 3e
       0.23081164 0.4369902 0.31528696 0.21217214
000310 cf db 81 3e e2 91 5e 3e 63 f4 bf 3e ee 45 80 3e
       0.25363013 0.21735337 0.3749114 0.25053352
000320 98 dd 8f 3e 9d 73 ae 3e 42 34 6f 3e 74 9e ae 3e
       0.2809875 0.3407258 0.23359779 0.34105265
000330 9a ee a5 3e 99 1c c5 3e 1d 16 ef 3e 87 a1 88 3e
       0.324086 0.3849838 0.4669656 0.26685736
000340 13 03 da 3e 25 7a a8 3e f9 3d 77 3e 5f 60 8f 3e
       0.4258047 0.3290569 0.24144734 0.28003213
000350 7b 10 c3 3e 82 21 c2 3e 40 3a a9 3e 7d 4f 77 3e
       0.3809851 0.3791619 0.33052254 0.24151416
000360 a4 bd d8 3e 80 f8 bb 3e f3 f9 34 3e df e1 a1 3e
       0.42332184 0.36713028 0.17673473 0.31617638
000370 ef 4b 98 3e 3d c2 84 3e b4 4a 76 3e 18 86 56 3e
       0.29745433 0.25929442 0.24051934 0.2094959
000380 3c 0c fc 3e 50 7c 31 3e 22 71 f2 3e 2c 4a 3d 3e
       0.49228084 0.17332578 0.47351938 0.18485326
000390 a1 67 8f 3e d4 5d 85 3e 19 46 6c 3e ee 53 c9 3e
       0.2800875 0.26048148 0.23073615 0.39321846
0003a0 dd 41 d0 3e 6b a0 5d 3e b3 18 71 3e 40 52 cd 3e
       0.4067525 0.21643226 0.23544578 0.40101814
0003b0 f0 2d a2 3e 0b 8d b3 3e 62 fc d3 3e 1b 5a 8e 3e
       0.31675673 0.35068545 0.4140349 0.2780312
0003c0 c8 26 65 3e f5 fc c2 3e 5f 52 88 3e d2 c1 66 3e
       0.22378075 0.38083616 0.26625344 0.22534874
0003d0 0e 39 76 3e 0d b2 7d 3e e4 2c f9 3e 97 7c b0 3e
       0.24045202 0.24774952 0.4866706 0.34470055
0003e0 3e a1 ca 3e 38 3a ad 3e 93 ef 53 3e 72 db e5 3e
       0.39576143 0.3383348 0.20696859 0.44893986
0003f0 2a e2 96 3e 88 45 8a 3e ae 2e e9 3e 14 c5 70 3e
       0.29469424 0.27006173 0.45543426 0.2351268

network.8.bias f4 [16]
000000 93 ae b3 3e 26 2e 3a bd 12 d9 3c 3e eb c6 8e 3b
       0.35094127 -0.045454167 0.18442181 0.004357209
000010 0a 48 12 3e 0f 53 ac 3e cc 2c c9 3e 3a 80 aa 3e
       0.14285293 0.3365712 0.3929199 0.33300954
000020 1f cc e2 3e a4 d9 b9 3e a5 04 bb bd b6 57 2a be
       0.44296357 0.3629886 -0.09131745 -0.16635022
000030 b6 1f 41 be 9e e4 cd 3e a9 d1 05 3d 09 6a 49 3e
       -0.18859753 0.40213484 0.03267065 0.19669355

network.10.weight f4 [1, 16]
000000 46 c3 e6 3e 46 10 3e bd ce eb 16 3f 55 00 c4 bc
       0.45070857 -0.04640224 0.5895356 -0.02392594
000010 ce 07 19 3f cb d5 0e 3f 2b c0 0c 3f 2a 5b 0d 3f
       0.59777534 0.5579497 0.54980725 0.5521723
000020 72 18 eb 3e 68 59 f0 3e fc 4c 32 be 3d 4b b0 3b
       0.45917088 0.46943212 -0.1741218 0.005380063
000030 e6 ae 86 ba 8b 4e 02 3f 9c 24 45 bd 5b a8 04 3f
       -0.0010275512 0.509011 -0.048130617 0.5181939
